cifar_net.pth (torch, 251604 bytes, 10 tensors)

conv1.weight f4 [6, 3, 5, 5]
0.0060730716 0.016177127 -0.07157582 -0.0111461915 -0.12453086 -0.11307082 -0.056855284 -0.16489682
-0.15389575 -0.17153688 -0.21731465 -0.27448633 -0.21230267 -0.18856075 -0.15002204 -0.2378285
-0.27144107 -0.17549033 -0.22815983 -0.0615399 -0.0023655577 -0.0055844104 -0.20295428 -0.12456064
0.0021800804 -0.14386754 0.015328504 -0.033555552 -0.14186439 -0.04374602 -0.0071724546 0.01948169
-0.038980205 -0.05951855 -0.18358627 -0.015550698 0.06429694 0.094078176 0.06381791 -0.08119344
-0.016760858 0.07971611 0.10378315 -0.020493725 -0.12932216 -0.051624723 -0.012700467 0.075083934
-0.009048429 -0.08092989 0.18296045 0.13418368 0.20219333 -0.023176622 -0.05345244 0.27474567
0.268211 0.29038227 0.07030461 0.11006495 0.1909142 0.4252889 0.25700432 0.13137987
0.07684796 0.23711556 0.27975178 0.1902525 0.16280569 0.011096235 0.05282048 0.25090796
0.2646106 0.04400503 -0.0008609266 0.092756145 -0.033267215 -0.2620313 -0.21524236 -0.22567171
-0.12885676 -0.32315126 -0.37166518 -0.14666538 -0.10137799 -0.035041243 -0.16097237 -0.10586903
-0.04883346 -0.16156709 0.19226056 0.23182106 0.29146683 0.29033628 0.23382391 0.36345142
0.18463548 0.20512407 0.3525629 0.24706458 0.034941297 0.002231926 -0.10300855 -0.12721334
-0.10332065 -0.2201746 -0.14938384 -0.22753555 -0.23922047 -0.06161998 -0.22695033 -0.19373447
-0.16123098 -0.12858959 -0.11908709 0.0048118844 0.22526093 0.26044768 0.17192791 -0.0965633
0.08503368 0.1992653 0.22506618 0.025603134 -0.06651839 0.26139098 0.03363705 0.11117831
0.06389111 0.24299142 0.020606333 -0.16931601 -0.09562438 -0.117757946 0.056746587 -0.13890132
-0.04630734 -0.15769553 0.0986568 0.13793087 -0.02036883 0.24673384 0.1914043 0.14601995
0.024855224 0.10913248 0.07436973 0.08943336 0.04817145 0.019461254 -0.3418481 -0.03409826
0.22161599 -0.09604383 -0.10838773 0.07789885 0.4609383 0.026057515 -0.5121612 -0.004495036
-0.335711 -0.063157484 -0.38038874 -0.29117376 0.027648823 -0.1654473 -0.18906926 -0.13134423
0.007774765 0.030287292 -0.024019934 0.015328566 0.013541083 -0.13108698 0.06705822 -0.1058369
0.13497268 0.23925294 -0.036455903 -0.19352828 0.19571985 0.5915995 0.13118063 -0.2779995
0.11270449 -0.10290015 0.13752747 0.023994008 -0.18989037 0.20690821 -0.02634125 0.057025842
-0.062242724 0.19273283 0.11815998 0.24329132 0.041296106 0.19539472 0.050410442 0.14854985
-0.37127775 -0.17360313 0.07511764 0.037286043 -0.0983907 -0.07126897 0.40434492 0.005764559
-0.33613965 0.0590649 -0.24226575 0.13110457 -0.13139136 -0.17103308 0.31985247 -0.10796161
-0.14189886 -0.1524011 0.032872885 0.065929085 0.075269 0.06693396 0.04751533 -0.039261054
0.08475788 0.31260872 0.40748596 0.21626672 0.23390073 0.09745928 0.38110873 0.17362401
-0.024784 -0.05607827 0.13810226 0.2834822 0.064292535 -0.41595608 0.082497045 0.24920814
0.2502132 0.016597942 -0.5032015 0.12795517 0.27362913 0.021518115 -0.31381035 -0.49235713
0.077717155 0.2266124 -0.07232189 -0.2209093 -0.44518447 -0.43309128 -0.16638833 0.04554953
00000000: 9e00 c73b e585 843c 5896 92bd 849e 36bc
00000010: 090a ffbd ad91 e7bd 16e1 68bd b6da 28be
00000020: d996 1dbe 5da7 2fbe bb87 5ebe 7989 8cbe
00000030: df65 59be 1216 41be 619f 19be 5089 73be
00000040: 53fa 8abe bdb3 33be bba2 69be 4311 7cbd
00000050: 7907 1bbb 6efd b6bb 3fd3 4fbe a619 ffbd
00000060: aedf 0e3b 0352 13be 6824 7b3c 8c71 09bd
00000070: e644 11be 072f 33bd e906 ebbb 1198 9f3c
00000080: b5a9 1fbd b9c9 73bd 0afe 3bbe 5bc8 7ebc
00000090: 1dae 833d 0fac c03d f7b2 823d bf48 a6bd
000000a0: 114e 89bc 3342 a33d 438c d43d 75e2 a7bc
000000b0: 076d 04be 7274 53bd 9f15 50bc 9bc5 993d
000000c0: dd3f 14bc 92be a5bd fc59 3b3e 7267 093e
000000d0: c50b 4f3e e6dc bdbc f2f0 5abd 77ab 8c3e
000000e0: f452 893e fcac 943e ddfb 8f3d bc69 e13d
000000f0: 037f 433e 77bf d93e 1296 833e 7288 063e
00000100: 7762 9d3d 6cce 723e a03b 8f3e 8dd1 423e
00000110: 89b6 263e fccc 353c 4a5a 583d 0277 803e
00000120: 0a7b 873e 9e3e 343d ceaf 61ba eff6 bd3d
00000130: 3443 08bd f728 86be 7e68 5cbe 7c16 67be
00000140: 07f3 03be 1574 a5be e64a bebe 732f 16be
00000150: 439f cfbd 6887 0fbd f1d5 24be ddd1 d8bd
00000160: 9805 48bd d871 25be f4df 443e 8062 6d3e
00000170: 243b 953e f5a6 943e 896f 6f3e 4e16 ba3e
00000180: 1511 3d3e 0b0c 523e 2083 b43e 7ffe 7c3e
00000190: 9b1e 0f3d 8145 123b 26f6 d2bd 3744 02be
000001a0: c799 d3bd 7375 61be 14f8 18be 14ff 68be
000001b0: 36f6 74be 3b65 7cbd ab65 68be 5462 46be
000001c0: bc19 25be fdac 03be efe3 f3bd 03ad 9d3b
000001d0: cdaa 663e 6659 853e df0d 303e fbc2 c5bd
000001e0: 2326 ae3d 340c 4c3e c077 663e aabd d13c
000001f0: cb3a 88bd 0ad5 853e 01c7 093d 74b1 e33d
00000200: 58d9 823d bed2 783e 9dce a83c 2d61 2dbe
00000210: b7d6 c3bd 142b f1bd 1c6f 683d 263c 0ebe
00000220: c4ac 3dbd f07a 21be 940c ca3d c03d 0d3e
00000230: 88dc a6bc cca7 7c3e 7dff 433e 4186 153e
00000240: 2f9d cb3c da80 df3d 284f 983d d628 b73d
00000250: 6d4f 453d 356d 9f3c b706 afbe 9eaa 0bbd
00000260: 4def 623e a1b2 c4bd 63fa ddbd 6f89 9f3d
00000270: 1b00 ec3e 9276 d53c ff1c 03bf 184b 93bb
00000280: 50e2 abbe b658 81bd 50c2 c2be ba14 95be
00000290: c97f e23c 046b 29be 5f9b 41be 1a7f 06be
000002a0: 75c3 fe3b 0e1d f83c 74c5 c4bc aa24 7b3c
000002b0: 6bdb 5d3c aa3b 06be d255 893d 04c1 d8bd
000002c0: 4736 0a3e b9fe 743e c952 15bd 472c 46be
000002d0: c96a 483e 1173 173f 3754 063e f355 8ebe
000002e0: 9dd1 e63d 50bd d2bd 00d4 0c3e 158f c43c
000002f0: 9f72 42be bfdf 533e 9bc9 d7bc ee93 693d
00000300: 3af2 7ebd c15b 453e dcfd f13d 5c21 793e
00000310: 1b26 293d 8e15 483e 2e7b 4e3d 741d 183e
00000320: 1e18 bebe 05c5 31be 47d7 993d 40b9 183d
00000330: 1081 c9bd 77f5 91bd 4c06 cf3e a0e4 bc3b
00000340: 7f1a acbe 09ee 713d 8314 78be 4740 063e
00000350: 758b 06be 4c23 2fbe b4c3 a33e fa1a ddbd
00000360: ef4d 11be 090f 1cbe b8a5 063d d405 873d
00000370: a226 9a3d ac14 893d 6f9f 423d 33d0 20bd
00000380: 8a95 ad3d 400e a03e 00a2 d03e 0675 5d3e
00000390: ac83 6f3e bb98 c73d af20 c33e 7eca 313e
000003a0: d107 cbbc 54b2 65bd ae6a 0d3e 9424 913e
000003b0: ceab 833d 32f8 d4be 36f4 a83d 6b30 7f3e
000003c0: f21b 803e 68f8 873c d0d1 00bf ae06 033e
000003d0: 1e19 8c3e c246 b03c c0ab a0be 3c16 fcbe
000003e0: 2c2a 9f3d 150d 683e 801d 94bd 0c36 62be
000003f0: 38ef e3be 24be ddbe b461 2abe 2592 3a3d

conv1.bias f4 [6]
0.3290312 -0.46640688 0.038957816 -0.37904578 -0.4811091 -0.09345057
00000000: c776 a83e e2cc eebe 3b92 1f3d 4a12 c2be
00000010: ef53 f6be 0363 bfbd

conv2.weight f4 [16, 6, 5, 5]
0.090579785 0.134968 0.14918944 0.09337018 -0.03745457 0.13107929 0.08057718 -0.025703644
-0.029596496 0.003705576 0.11074713 -0.0559016 -0.092821375 -0.0456542 0.020086667 0.114008576
-0.13000707 -0.17715476 0.029514313 -0.05662186 0.19905007 0.019137472 -0.15699512 -0.058309544
-0.10012604 0.03054054 -0.009326107 0.107366174 0.1373987 0.11298484 -0.108078726 -0.15812697
-0.1484328 -0.021505577 0.021631379 0.04166527 -0.1122546 -0.1940563 -0.027636345 -0.036699206
0.028867317 -0.16462086 -0.19157246 0.02647996 0.063343935 -0.061207213 -0.090950005 0.0068161753
0.14767195 0.26229447 0.04671658 0.046421673 -0.047200132 -0.086654134 0.0055802306 0.070468664
-0.0025670517 -0.049117733 -0.13231733 -0.023592498 0.12017504 -0.04185896 -0.03692472 -0.15333197
-0.042625044 0.352108 0.095843606 -0.04211073 -0.13775133 -0.10430738 0.2950074 0.22388428
0.01093795 -0.013854737 -0.10654504 0.22000296 -0.012605716 -0.0057139015 0.0061777583 -0.06410723
0.1024571 0.17511666 -0.034207188 0.0102537135 -0.08991863 0.08325287 0.047485266 -0.062342726
-0.052305263 -0.033520855 0.016114913 0.021777319 0.062618345 -0.06466088 -0.19787332 0.12029045
0.06384219 0.16776055 -0.13301359 -0.2505493 0.17952923 -0.0059736874 -0.12853925 -0.10388073
0.008234843 0.08009297 0.15057854 -0.033977326 -0.09363871 0.05354823 -0.06316809 -0.08702092
-0.0019913197 0.02887033 0.060361214 -0.22947271 -0.22669038 -0.028374676 0.08542342 0.06338485
-0.26239917 -0.25528488 -0.07793555 0.09861617 0.13599978 -0.19055326 -0.1854921 -0.10395815
0.07403485 -0.032547314 0.10763282 -0.25461683 -0.21590771 0.08118851 0.07967541 0.30107853
-0.11531454 -0.37689853 -0.13995957 0.11461133 0.26158077 0.098453015 -0.21916802 -0.23542337
-0.065807015 0.18010919 0.37913847 0.056255523 -0.21693622 -0.20816813 -0.033156853 -0.13276087
-0.1520603 -0.11719063 -0.06099976 0.054378342 0.03275866 -0.008590954 0.03744171 0.069559336
-0.022425024 -0.027605822 0.026418738 0.09236327 0.07127466 -0.058513977 0.0021576195 0.07032363
0.0021259976 -0.08032202 -0.015579433 -0.08393831 0.013897335 -0.076146565 -0.016519053 0.072491854
0.23915751 0.2606855 0.071002536 0.2225521 0.08194438 0.07390168 -0.09629012 -0.101702094
-0.17985496 -0.102243066 -0.12380134 -0.1113183 -0.018162815 0.06856246 -0.17653163 -0.10328201
-0.061672322 -0.17599955 -0.10354552 -0.033697903 -0.12924968 -0.061990544 -0.069706276 -0.009766334
0.2830768 0.15545219 -0.040057883 -0.19465676 -0.09009671 0.124814324 -0.06478749 -0.099370636
-0.1817743 -0.11842894 0.09972753 -0.084923245 -0.07064153 -0.13418871 -0.17055361 -0.056727927
0.0036107274 0.025947172 0.048560444 0.0054740575 0.0339246 0.14910296 0.1860939 0.107779816
0.07243303 0.22650346 0.23579851 0.1561577 0.03278664 0.13515696 0.2607939 0.18814501
0.10721393 0.04728389 0.2367053 0.3442247 0.10251833 0.19161 -0.043411594 0.16149604
0.078302935 0.04583613 0.15123427 0.011279622 -0.018505793 0.0049251 -0.017330945 -0.06686946
0.038537 0.006062518 0.04878252 -0.024496812 -0.026486732 0.053281706 0.037972167 0.020266587
00000000: e581 b93d 0d35 0a3e 1ec5 183e dd38 bf3d
00000010: f769 19bd a639 063e a605 a53d 7390 d2bc
00000020: 5a74 f2bc 40d9 723b 64cf e23d 13f9 64bd
00000030: 2219 bebd e6ff 3abd cb8c a43c 547d e93d
00000040: 9320 05be 0f68 35be 00c8 f13c 53ec 67bd
00000050: c8d3 4b3e 30c6 9c3c 54c3 20be fdd5 6ebd
00000060: e20e cdbd 2830 fa3c 87cc 18bc cce2 db3d
00000070: 3fb2 0c3e 9964 e73d 6158 ddbd 09ec 21be
00000080: c5fe 17be 772c b0bc 4a34 b13c 34a9 2a3d
00000090: bde5 e5bd b2b6 46be 9e65 e2bc e851 16bd
000000a0: 277b ec3c 5f92 28be 922b 44be 80ec d83c
000000b0: 77ba 813d 6ab4 7abd ff43 babd 395a df3b
000000c0: 5137 173e 764b 863e e259 3f3d a724 3e3d
000000d0: ed54 41bd b977 b1bd 5eda b63b e051 903d
000000e0: fb3b 28bb ad2f 49bd 327e 07be 0e45 c1bc
000000f0: 551e f63d 4d74 2bbd 603e 17bd 0e03 1dbe
00000100: 9997 2ebd 8047 b43e a749 c43d 4d7c 2cbd
00000110: af0e 0dbe 1c9f d5bd 360b 973e ec41 653e
00000120: 1635 333c fbfe 62bc 4934 dabd 7548 613e
00000130: 3488 4ebc ae3b bbbb cb6e ca3b a74a 83bd
00000140: 07d5 d13d c851 333e d61c 0cbd 31ff 273c
00000150: 4227 b8bd 7b80 aa3d e97f 423d 165b 7fbd
00000160: 0b3e 56bd 2a4d 09bd 6c03 843c 5966 b23c
00000170: 0c3e 803d ec6c 84bd 4e9f 4abe d75a f63d
00000180: b2bf 823d 6cc9 2b3e b734 08be ff47 80be
00000190: 83d6 373e ecbe c3bb cb9f 03be 6cbf d4bd
000001a0: 6feb 063c c807 a43d 4331 1a3e cf2b 0bbd
000001b0: a7c5 bfbd 6455 5b3d 465e 81bd 0638 b2bd
000001c0: cd80 02bb 7881 ec3c 523d 773d e5fa 6abe
000001d0: 8621 68be 0272 e8bc 79f2 ae3d ebcf 813d
000001e0: 2f59 86be b3b4 82be ac9c 9fbd 46f7 c93d
000001f0: 8743 0b3e 6520 43be a4f1 3dbe 03e8 d4bd
00000200: 959f 973d 5550 05bd 996e dc3d 235d 82be
00000210: e916 5dbe 2946 a63d dd2c a33d f726 9a3e
00000220: 082a ecbd d8f8 c0be 9051 0fbe 58b9 ea3d
00000230: eaed 853e bca1 c93d 956d 60be d312 71be
00000240: d4c5 86bd 8b6e 383e 701e c23e 316c 663d
00000250: 8724 5ebe 072a 55be 7bcf 07bd 77f2 07be
00000260: b2b5 1bbe a401 f0bd e2da 79bd d3bb 5e3d
00000270: f22d 063d 13c1 0cbc 7a5c 193d 2075 8e3d
00000280: afb4 b7bc 9b25 e2bc 1c6c d83c f428 bd3d
00000290: 73f8 913d 5aac 6fbd d966 0d3b d605 903d
000002a0: 5254 0b3b df7f a4bd e140 7fbc d9e7 abbd
000002b0: a6b1 633c bbf2 9bbd f752 87bc 9c76 943d
000002c0: b5e5 743e 9278 853e c769 913d b3e4 633e
000002d0: 75d2 a73d c459 973d c133 c5bd 3049 d0bd
000002e0: e62b 38be d064 d1bd 8f8b fdbd d9fa e3bd
000002f0: 2fca 94bc 7a6a 8c3d b5c4 34be 8585 d3bd
00000300: 1e9c 7cbd 3a39 34be ac0f d4bd d006 0abd
00000310: 075a 04be cce9 7dbd 2ac2 8ebd f902 20bc
00000320: 71ef 903e dc2e 1f3e bc13 24bd 1a54 47be
00000330: a084 b8bd a79e ff3d 4eaf 84bd d582 cbbd
00000340: 0b23 3abe df8a f2bd f23d cc3d 3dec adbd
00000350: 82ac 90bd c468 09be 9ba5 2ebe 8b5b 68bd
00000360: f4a1 6c3b 2a8f d43c 51e7 463d b95f b33b
00000370: 85f4 0a3d 72ae 183e 668f 3e3e aabb dc3d
00000380: c557 943d 86f0 673e 2a75 713e cee7 1f3e
00000390: 494b 063d 9666 0a3e c786 853e 16a9 403e
000003a0: fa92 db3d c1ac 413d e062 723e 383e b03e
000003b0: 21f5 d13d 6935 443e 5bd0 31bd 385f 253e
000003c0: 4a5d a03d aabe 3b3d 28dd 1a3e 2ace 383c
000003d0: 7699 97bc bc62 a13b a0f9 8dbc dbf2 88bd
000003e0: f9d8 1d3d 16a8 c63b 2ed0 473d 8aad c8bc
000003f0: b4fa d8bc eb3d 5a3d b488 1b3d 1d06 a63c

conv2.bias f4 [16]
-0.28311497 -0.22291824 0.8105877 0.6455676 -0.34083852 -0.04670671 0.08763477 0.012733917
0.13209592 -0.5319468 -0.041300856 0.5587068 -0.26255146 0.37370422 0.23287979 -0.22051395
00000000: 72f4 90be ae44 64be ad82 4f3f eb43 253f
00000010: 6382 aebe 894f 3fbd dc79 b33d eba1 503c
00000020: 2744 073e aa2d 08bf 162b 29bd 6907 0f3f
00000030: 256d 86be 2956 bf3e 0a78 6e3e 69ce 61be

fc1.weight f4 [120, 400]
0.04161051 -0.0011493948 0.05441681 0.02837526 -0.027731704 0.035684295 0.046857703 0.020046813
-0.020845998 0.0145052755 -0.04322411 -0.005459808 -0.004308911 0.07896391 -0.03620385 -0.008742916
-0.03303906 -0.01579948 0.043065477 0.045823768 -0.03336684 -0.10118684 -0.048968017 -0.06386048
0.016880378 -0.042028546 -0.020506125 0.019369202 -0.026312754 0.037328687 0.001652024 -0.005613284
-0.022395283 0.044431116 0.026882961 0.0368819 -0.017204205 0.06175611 0.035554793 0.05565127
-0.018121414 -0.0152240265 0.033076473 0.06275842 -0.016941326 -0.027052423 -0.04005913 -0.094826154
-0.011494853 -0.069068275 -0.09683438 -0.026472157 0.0012083134 -0.022279099 -0.027400117 -0.042333722
-0.047699608 -0.017771853 -0.0026253215 0.01370138 0.009706561 0.022142375 -0.042802863 0.00051445386
0.05898904 -0.029446116 -0.0050343433 -0.035019167 0.064099334 0.07896602 0.0614374 0.08043646
-0.0024885298 0.08202986 0.06473657 0.04900257 -0.003872141 0.030418832 0.047298424 0.0054685944
-0.085239045 0.031532463 -0.049963545 0.019120123 -0.027146803 -0.06996705 0.010297346 -0.015760453
-0.04859703 -0.0416568 -0.007927465 -0.014506394 -0.018688722 -0.06839336 0.0037864442 -0.016202059
-0.0555598 -0.016360069 -0.006449867 -0.050593294 0.07212357 -0.010731736 -0.026808808 0.026028723
0.03325628 0.059372365 0.041798364 -0.00015153723 -0.005900126 0.035105087 0.07186797 0.010376309
0.004795662 -0.021667438 0.046894632 -0.07810223 -0.014334152 -0.015948797 0.05574129 0.035848133
-0.048977677 -0.05405227 -0.036498886 -0.06822088 -0.035560314 -0.04641187 -0.04162736 0.042259347
0.047547434 0.084366366 -0.079407975 -0.0116988635 -0.02927564 -0.021859972 0.0121262865 0.01780068
0.014193636 -0.05586633 -0.05264037 -0.027988413 0.03581969 0.044725027 -0.030232772 0.047177646
0.046293024 -0.04143404 -0.024061449 0.0010517078 -0.052692473 0.03569003 0.015055938 -0.019268261
0.00281174 0.019045034 0.029178467 -0.04533593 0.009041815 -0.010117604 -0.009877057 0.041166537
0.0069743088 0.02141378 -0.024653466 0.043997757 0.0040297275 0.049158193 -0.007175722 0.07070049
0.027515944 0.011224429 0.034262456 0.010027239 -0.050170146 -0.04026841 0.06374208 -0.049850993
-0.021119738 0.043345325 0.03154263 -0.05883153 -0.02970759 -0.017036084 0.051372413 -0.061095156
-0.0029871198 -0.008519657 0.007842387 0.015484895 -0.08234884 0.018866397 -0.025179774 0.037579235
-0.077707 0.012446158 -0.055068936 -0.059327886 -0.044221725 0.02361182 0.015809957 -0.0066662533
0.05069806 -0.02710758 -0.019749025 0.017051026 0.0066510793 0.0149961235 -0.025086423 0.0034050045
0.03367962 -0.035098545 -0.016555347 -0.06465056 0.035498384 -0.0058791167 0.011494388 -0.008878704
-0.012632872 -0.05813542 -0.02837148 -0.0026139293 -0.057889517 -0.037295464 -0.03441104 -0.037206
-0.03494488 -0.053801496 0.0012307661 0.07117354 0.07373352 0.08861354 -0.06120456 -0.073579095
-0.020486642 -0.065648936 -0.020202434 0.0037403845 -0.039024584 0.011244241 -0.010220796 0.04113221
0.016988644 0.014605021 -0.058553882 -0.06389957 -0.046010036 -0.008292723 -0.04221572 -0.070149675
-0.12496058 -0.07216395 -0.020929473 -0.008949059 0.02325547 -0.067897975 -0.04374502 0.03504552
00000000: c86f 2a3d 4aa7 96ba 29e4 5e3d 3c73 e83c
00000010: 992d e3bc b229 123d dded 3f3d 3739 a43c
00000020: 3ac5 aabc 89a7 6d3c c40b 31bd 30e8 b2bb
00000030: c431 8dbb d5b7 a13d 7d4a 14bd 733e 0fbc
00000040: f753 07bd e96d 81bc 6d65 303d b4b1 3b3d
00000050: abab 08bd 0c3b cfbd b092 48bd 49c9 82bd
00000060: b848 8a3c 2026 2cbd 76fc a7bc 29ac 9e3c
00000070: d88d d7bc f7e5 183d ba88 d83a a4ef b7bb
00000080: 5076 b7bc 67fd 353d a839 dc3c 7a11 173d
00000090: d5ef 8cbc faf3 7c3d e7a1 113d 96f2 633d
000000a0: 5c73 94bc 326e 79bc 327b 073d 7d87 803d
000000b0: 89c8 8abc 0b9d ddbc 0b15 24bd 3734 c2bd
000000c0: e854 3cbc ab73 8dbd 1a51 c6bd 23dc d8bc
000000d0: 4560 9e3a a882 b6bc 3676 e0bc 2066 2dbd
000000e0: aa60 43bd 4796 91bc 960d 2cbb c17b 603c
000000f0: 4508 1f3c ed63 b53c 0e52 2fbd 6adc 063a
00000100: 7e9e 713d fb38 f1bc 22f7 a4bb 4270 0fbd
00000110: 8346 833d f0b8 a13d c8a5 7b3d dfbb a43d
00000120: 9a16 23bb 45ff a73d 9b94 843d ebb6 483d
00000130: bfc3 7dbb ea30 f93c febb 413d e531 b33b
00000140: cf91 aebd 2f28 013d 93a6 4cbd cea1 9c3c
00000150: f962 debc e24a 8fbd 33b6 283c 111c 81bc
00000160: ae0d 47bd 52a0 2abd 33e2 01bc 3aac 6dbc
00000170: 1719 99bc d111 8cbd fe25 783b 2eba 84bc
00000180: ac92 63bd 8d05 86bc 6859 d3bb ea3a 4fbd
00000190: 86b5 933d 2ad4 2fbc 259e dbbc 303a d53c
000001a0: bd37 083d 7030 733d c334 2b3d f7e5 1eb9
000001b0: d855 c1bb 5aca 0f3d 842f 933d 6501 2a3c
000001c0: ee24 9d3b e97f b1bc 9614 403d 10f4 9fbd
000001d0: cbd9 6abc 0da7 82bc fb50 643d 7ed5 123d
000001e0: d19c 48bd ea65 5dbd db7f 15bd 64b7 8bbd
000001f0: b1a7 11bd 5f1a 3ebd 7381 2abd 2318 2d3d
00000200: 19c1 423d 46c8 ac3d a6a0 a2bd 97ac 3fbc
00000210: 78d3 efbc af13 b3bc 55ad 463c bbd2 913c
00000220: 6d8c 683c 18d4 64bd 6e9d 57bd f547 e5bc
00000230: abb7 123d 9731 373d b8aa f7bc 593d 413d
00000240: c19d 3d3d bdb6 29bd 841c c5bc 75d9 893a
00000250: 10d4 57bd b52f 123d 2ead 763c 79d8 9dbc
00000260: 2b45 383b 5504 9c3c ae07 ef3c 2bb2 39bd
00000270: 1f24 143c 4fc4 25bc 61d3 21bc 3e9e 283d
00000280: be88 e43b f46b af3c 11f6 c9bc fe36 343d
00000290: ce0b 843b 1a5a 493d 5222 ebbb 6bcb 903d
000002a0: 1e69 e13c abe6 373c ca56 0c3d 4a49 243c
000002b0: 367f 4dbd 7df0 24bd 358b 823d 8e30 4cbd
000002c0: 4d03 adbc de8a 313d d832 013d 55f9 70bd
000002d0: 555d f3bc 428f 8bbc e16b 523d ea3e 7abd
000002e0: 8ec3 43bb 0896 0bbc 5b7d 003c 5bb4 7d3c
000002f0: 82a6 a8bd b48d 9a3c d045 cebc afec 193d
00000300: d924 9fbd f8ea 4b3c f78f 61bd cc01 73bd
00000310: d721 35bd 936d c13c e283 813c 9670 dabb
00000320: c5a8 4f3d b710 debc b5c8 a1bc 98ae 8b3c
00000330: 4cf1 d93b 4db2 753c 0b82 cdbc 7f26 5f3b
00000340: a4f3 093d 7ec3 0fbd 149f 87bc 8367 84bd
00000350: c166 113d 9ba5 c0bb f552 3c3c fc77 11bc
00000360: 1bfa 4ebc 681f 6ebd 4e6b e8bc 754e 2bbb
00000370: 8f1d 6dbd 21c3 18bd 97f2 0cbd 5265 18bd
00000380: 5d22 0fbd f55e 5cbd a851 a13a 6fc3 913d
00000390: 9a01 973d 047b b53d a2b1 7abd a3b0 96bd
000003a0: 9ad3 a7bc f372 86bd 937f a5bc 3d21 753b
000003b0: 3ed8 1fbd c439 383c 2075 27bc 407a 283d
000003c0: c52b 8b3c e649 6f3c 32d6 6fbd c7dd 82bd
000003d0: 0575 3cbd 34de 07bc 64ea 2cbd a2aa 8fbd
000003e0: 55eb ffbd b1ca 93bd 4974 abbc 139f 12bc
000003f0: 4182 be3c 180e 8bbd fa2d 33bd e48b 0f3d

fc1.bias f4 [120]
0.082260765 0.05213039 -0.0031008332 0.049716372 0.07049547 0.09123773 0.110865615 0.09711922
0.122542225 0.16936524 -0.023782887 -0.062410973 -0.18832634 0.056449972 -0.092006035 0.046503127
0.030233866 0.005587124 0.04540938 -0.11483983 -0.003103558 0.016313722 -0.06803796 0.026354428
-0.017040312 0.02177442 0.019040057 -0.05603597 0.099169716 0.044020236 0.009946503 -0.013715093
-0.063415125 -0.02105003 -0.02546065 -0.015982289 0.079647765 0.034915317 0.13356055 0.050621655
0.12827882 0.024856184 0.011281951 0.010254147 -0.025462594 0.095892176 0.059992656 0.008693146
0.015669882 0.06887684 0.016948875 0.011079453 -0.011430985 0.050608303 0.0029671213 -0.048510533
-0.06169473 0.13526203 -0.18312019 -0.021289261 0.10198462 -0.04154689 0.09613393 -0.041759174
-0.021741698 0.033800878 -0.047905467 -0.001479032 -0.035601903 0.11744731 -0.022869026 0.030412763
-0.015533045 0.07831318 0.03393589 0.11076469 0.2286528 0.022101508 -0.03383578 -0.0010822264
-0.014160103 0.011150312 0.035161525 0.017021881 -0.049016103 -0.044512413 -0.017074509 0.00254024
0.024770329 -0.1113015 -0.0050489428 -0.055597126 0.036574386 -0.04378232 0.01574962 0.09975897
-0.18316971 -0.0004001293 0.043667972 -0.08586559 -0.033815134 0.08897242 0.030469287 -0.04504653
0.05445272 0.041866977 0.076584555 0.11944926 -0.10159883 0.01281316 -0.041727163 0.07712267
0.027554704 -0.059016604 0.021753963 0.011300224 -0.0636621 0.027320141 0.060478568 -0.05144307
00000000: 5578 a83d ad86 553d 5937 4bbb 65a3 4b3d
00000010: ee5f 903d d9da ba3d 830d e33d 71e6 c63d
00000020: 6bf7 fa3d 156e 2d3e 54d4 c2bc a6a2 7fbd
00000030: 9fd8 40be 1638 673d a96d bcbd 107a 3e3d
00000040: 03ad f73c 3114 b73b 30ff 393d 2531 ebbd
00000050: 1065 4bbb 5ba4 853c 7c57 8bbd 3ee5 d73c
00000060: 2098 8bbc 4560 b23c e5f9 9b3c f985 65bd
00000070: 7e19 cb3d 904e 343d a8f6 223c 45b5 60bc
00000080: cadf 81bd 1d71 acbc da92 d0bc 4aed 82bc
00000090: 5e1e a33d 5d03 0f3d 19c4 083e a758 4f3d
000000a0: 865b 033e 329f cb3c efd7 383c 0301 283c
000000b0: ee96 d0bc 1e63 c43d dcba 753d b26d 0e3c
000000c0: 205e 803c 4d0f 8d3d 5ed8 8a3c 9886 353c
000000d0: 0749 3bbc a74a 4f3d 0974 423b fbb2 46bd
000000e0: 9db3 7cbd 2182 0a3e dc83 3bbe d166 aebc
000000f0: 50dd d03d 122d 2abd dee1 c43d ab0b 2bbd
00000100: a51b b2bc ca72 0a3d 8638 44bd 14dc c1ba
00000110: 4dd3 11bd 3788 f03d d357 bbbc 3024 f93c
00000120: 507e 7ebc a962 a03d 5c00 0b3d 99d8 e23d
00000130: f623 6a3e 390e b53c 6397 0abd 7ed9 8dba
00000140: c7ff 67bc ccaf 363c 8805 103d 7971 8b3c
00000150: 1cc5 48bd a652 36bd d7df 8bbc 287a 263b
00000160: 25eb ca3c 0af2 e3bd 9a71 a5bb d0b9 63bd
00000170: 06cf 153d 1755 33bd 5905 813c 6e4e cc3d
00000180: d790 3bbe 72c8 d1b9 30dd 323d 4cda afbd
00000190: bd81 0abd 2c37 b63d ba9a f93c b682 38bd
000001a0: d109 5f3d b57c 2b3d 5dd8 9c3d d0a1 f43d
000001b0: 0c13 d0bd 4aee 513c 1aea 2abd 7ef2 9d3d
000001c0: 67ba e13c 65bb 71bd 5e35 b23c 9324 393c
000001d0: 4661 82bd 7dce df3c 60b8 773d f8b5 52bd

fc2.weight f4 [84, 120]
0.039123602 0.052824467 -0.01382956 -0.10391432 -0.007268962 0.1684753 -0.04082033 0.06537992
-0.036909733 0.072359346 -0.05377417 -0.009640268 -0.011323919 -0.060207743 -0.006355997 0.044983838
0.11120051 0.03466939 0.116601594 0.020760631 0.101543725 -0.04875574 0.006117498 -0.0014106621
0.040404215 -0.050938915 -0.014902137 -0.008394042 0.13417938 -0.0534045 0.05167982 -0.15446876
0.0023714083 -0.14398116 -0.021694154 0.07016724 0.027423525 -0.077912435 0.065810196 -0.075587824
-0.053784043 0.04081954 -0.048651528 0.017274274 -0.020101806 0.02631711 0.03787054 0.061050802
0.054918565 -0.03830689 0.09584349 0.027019298 -0.032306705 -0.12300775 -0.025506618 -0.021850053
-0.09424721 0.06533087 -0.11828491 0.02535788 -0.026968362 -0.0012619214 0.13012598 0.086950526
0.010052019 -0.06820077 0.09172591 -0.09660035 -0.04397058 0.109014355 -0.050882656 0.04287218
0.033855394 0.012733668 -0.02218939 0.012984547 -0.083052725 -0.01269776 0.03650737 -0.068832636
-0.07056682 -0.031205012 0.022585798 0.029693983 0.014516357 0.023865052 -0.0866653 0.048784975
0.025537578 -0.07504561 -0.024669817 -0.1182469 0.08902124 0.07643698 -0.032522343 0.12398426
-0.0076310765 0.033030607 -0.010903882 -0.13542366 -0.11030765 0.08568042 0.00051982707 0.05243247
0.16974604 0.051644 0.03657836 0.08496135 -0.052425217 0.096707575 -0.07057101 0.052708767
-0.0030944217 -0.08566423 0.05037512 -0.09108312 -0.124437064 -0.051210567 0.09659301 0.09232975
-0.012452886 -0.11347887 -0.08125442 -0.06618263 0.013779908 0.021333031 0.04469401 0.0141419275
0.116688214 -0.069350384 0.109161206 -0.059170872 0.096154094 0.056707036 0.06446943 -0.11683642
0.0016400709 0.108720064 -0.08525263 0.10823224 -0.025003463 -0.038710624 -0.06604117 0.056111794
0.03439412 -0.016120907 -0.08589437 -0.06915148 0.040198043 -0.057034183 -0.10171518 -0.017745871
0.013306785 -0.07684919 0.085482866 -0.049144015 0.052134715 0.050697647 -0.054814667 -0.024616864
-0.031195609 0.009085798 0.06482022 -0.014529101 -0.02632357 0.12059619 0.1683772 0.0445792
0.100979805 0.07675277 0.015703864 0.060797244 0.03018462 -0.09851045 0.098126456 0.10968337
0.09752801 -0.10161332 -0.009035713 0.010277871 0.06841831 -0.13076517 -0.16089384 0.054683425
-0.08990645 -0.08517455 -0.16426188 -0.09277818 -0.11967762 -0.043686025 0.027440578 0.041797213
-0.062962495 -0.0805232 -0.016512472 0.0026787024 0.009100678 -0.05826546 0.048665404 -0.020867856
0.06808813 -0.012080866 0.044359636 0.059402153 -0.056764454 0.06359611 -0.07718776 -0.017422639
0.07019134 -0.026017725 0.08477193 0.022786656 0.092883 -0.060228694 -0.012957817 0.012605322
0.043029435 -0.07955594 -0.057816353 0.07177521 0.07142407 -0.022413697 0.16479732 -0.08327705
0.040830117 0.024595162 -0.06940111 -0.0022608184 -0.099526025 -0.07668322 -0.03822746 -0.14050208
-0.089820474 -0.0893137 -0.061220184 0.02331705 0.07637384 -0.024923168 0.0434719 -0.041759163
0.061530277 0.11950535 0.13638546 0.09174823 -0.083511345 0.002297405 -0.049234614 0.13350266
-0.16068593 -0.09805855 0.13193545 0.08847177 0.05279653 -0.013528931 0.0624676 0.0071954527
00000000: 1240 203d 785e 583d 6195 62bc 08d1 d4bd
00000010: 7930 eebb ca84 2c3e 3833 27bd e8e5 853d
00000020: a92e 17bd 2331 943d 4e42 5cbd 37f2 1dbc
00000030: f587 39bc 659c 76bd f845 d0bb f940 383d
00000040: 18bd e33d 7e01 0e3d d1cc ee3d 3312 aa3c
00000050: 28f6 cf3d 19b4 47bd 4b75 c83b f7e5 b8ba
00000060: e47e 253d 53a5 50bd 1828 74bc 2a87 09bc
00000070: 5266 093e adbe 5abd 38ae 533d 0f2d 1ebe
00000080: a169 1b3b cc6f 13be f0b7 b1bc d8b3 8f3d
00000090: 4da7 e03c 8e90 9fbd 7fc7 863d cacd 9abd
000000a0: a84c 5cbd 6432 273d d346 47bd c782 8d3c
000000b0: 8bac a4bc fb96 d73c 241e 1b3d 6810 7a3d
000000c0: 4af2 603d afe7 1cbd 9749 c43d 9357 dd3c
000000d0: 0954 04bd 7deb fbbd 41f3 d0bc e2fe b2bc
000000e0: ae04 c1bd 31cc 853d 5c3f f2bd 54bb cf3c
000000f0: c1ec dcbc 0e67 a5ba bf3f 053e 1e13 b23d
00000100: 39b1 243c d8ac 8bbd cbda bb3d 68d6 c5bd
00000110: 7f1a 34bd eb42 df3d 556a 50bd bd9a 2f3d
00000120: f4ab 0a3d e0a0 503c 86c6 b5bc 23bd 543c
00000130: 8c17 aabd 440a 50bc c188 153d 20f8 8cbd
00000140: 5685 90bd a7a1 ffbc da05 b93c cc40 f33c
00000150: 04d6 6d3c a480 c33c 947d b1bd c1d2 473d
00000160: 2f34 d13c 83b1 99bd 5b18 cabc 6e2b f2bd
00000170: c550 b63d fe8a 9c3d 2636 05bd 76eb fd3d
00000180: 1c0e fabb 1a4b 073d 32a6 32bc 80ac 0abe
00000190: fae8 e1bd 3779 af3d 0145 083a 6ec3 563d
000001a0: e8d1 2d3e a988 533d 31d3 153d 3700 ae3d
000001b0: d3bb 56bd 9f0e c63d 8987 90bd 26e5 573d
000001c0: c8cb 4abb ba70 afbd 2456 4e3d c989 babd
000001d0: dcd8 febd 2cc2 51bd 8ed2 c53d 6117 bd3d
000001e0: 3107 4cbc 9c67 e8bd b868 a6bd c28a 87bd
000001f0: 20c5 613c 9cc2 ae3c 1111 373d 8bb3 673c
00000200: 3bfa ee3d 9307 8ebd e98f df3d 285d 72bd
00000210: 70ec c43d a345 683d 8c08 843d ef47 efbd
00000220: a6f7 d63a a0a8 de3d ee98 aebd dda8 dd3d
00000230: 10d4 ccbc 088f 1ebd 9840 87bd 7bd5 653d
00000240: d9e0 0c3d fe0f 84bc 63e9 afbd 4b9f 8dbd
00000250: b4a6 243d ad9c 69bd 0c50 d0bd ca5f 91bc
00000260: b404 5a3c 1c63 9dbd a411 af3d 3c4b 49bd
00000270: 368b 553d 56a8 4f3d 5885 60bd 4ea9 c9bc
00000280: ef8d ffbc 99dc 143c 77c0 843d 770b 6ebc
00000290: 87a4 d7bc 23fb f63d 136b 2c3e ae98 363d
000002a0: 80ce ce3d 8e30 9d3d 64a5 803c 8806 793d
000002b0: bc45 f73c d9bf c9bd 86f6 c83d ada1 e03d
000002c0: c4bc c73d a51a d0bd 870a 14bc 8464 283c
000002d0: e61e 8c3d 4ee7 05be 5bc1 24be bafb 5f3d
000002e0: df20 b8bd ff6f aebd 4434 28be 7d02 bebd
000002f0: 8a19 f5bd 1ef0 32bd 10cb e03c 8e33 2b3d
00000300: 7bf2 80bd 59e9 a4bd 2a45 87bc 2b8d 2f3b
00000310: 031b 153c c3a7 6ebd 6055 473d 11f3 aabc
00000320: ca71 8b3d d3ee 45bc 73b2 353d ac4f 733d
00000330: d881 68bd ad3e 823d 9e14 9ebd ecb9 8ebc
00000340: 7ac0 8f3d 2023 d5bc e89c ad3d 15ab ba3c
00000350: 7139 be3d 5db2 76bd 064d 54bc 8d86 4e3c
00000360: a23f 303d 3aee a2bd d7d0 6cbd e2fe 923d
00000370: c846 923d ee9c b7bc a1c0 283e 288d aabd
00000380: 7b3d 273d cb7b c93c 2b22 8ebd 3d2a 14bb
00000390: 4dd4 cbbd 180c 9dbd 6694 1cbd c7df 0fbe
000003a0: ccf3 b7bd 1aea b6bd 04c2 7abd 6603 bf3c
000003b0: e369 9c3d ac2b ccbc 970f 323d a80b 2bbd
000003c0: 2c07 7c3d 39bf f43d a1a8 0b3e 7fe6 bb3d
000003d0: ff07 abbd 0f90 163b 3caa 49bd ecb4 083e
000003e0: da8a 24be ecd2 c8bd 161a 073e b030 b53d
000003f0: 2d41 583d 73a8 5dbc 07de 7f3d d5c7 eb3b

fc2.bias f4 [84]
0.23852101 0.031782903 -0.10189887 -0.06345932 0.11849393 0.14886795 0.10926411 0.13331722
0.12351032 -0.13043065 0.01513803 -0.025494078 0.20731016 0.09357332 0.20701472 0.18467197
0.06633664 0.13719933 -0.03750173 -0.0076358444 0.09645401 0.19452086 0.17208083 0.31685686
0.020988824 0.1374404 0.21042028 0.11874223 -0.0054270476 0.18035476 0.16522071 0.02690899
-0.015169148 -0.036867533 0.11288472 -0.048035037 0.23409377 -0.068249956 -0.083903 0.057338066
-0.0894675 0.40920505 -0.17251422 -0.016860852 0.006648455 0.011242568 0.18456003 -0.034522727
-0.16220652 -0.074376374 0.16609773 0.25656256 0.19684719 0.0091384705 -0.05251382 0.12549591
-0.1865057 -0.0053873374 0.13661063 0.049539566 0.051958 0.020898761 -0.06137053 0.007650127
0.02689404 -0.0699225 0.23627841 -0.1183398 0.14385223 -0.08545039 0.15873063 0.18349077
0.13092488 0.14987442 0.04400071 0.06457195 -0.022445409 -0.011083202 -0.048587196 -0.027944345
-0.062368833 0.2387144 -0.07523606 0.17502749
00000000: da3e 743e ca2e 023d 5bb0 d0bd f6f6 81bd
00000010: f2ac f23d d770 183e ddc5 df3d 4f84 083e
00000020: fbf2 fc3d 9d8f 05be 8005 783c f5d8 d0bc
00000030: 1d49 543e 5ea3 bf3d abfb 533e a61a 3d3e
00000040: 81db 873d fb7d 0c3e 6a9b 19bd 1b36 fabb
00000050: ae89 c53d 7a30 473e f535 303e 103b a23e
00000060: c1f0 ab3c 2dbd 0c3e 6a78 573e 202f f33d
00000070: 60d5 b1bb ebae 383e 9e2f 293e 3e70 dc3c
00000080: 0588 78bc 6902 17bd 1b30 e73d 63c0 44bd
00000090: 47b6 6f3e a2c6 8bbd 56d5 abbd 52db 6a3d
000000a0: bd3a b7bd 5383 d13e 91a7 30be c51f 8abc
000000b0: 48db d93b bf32 383c 4efd 3c3e b467 0dbd
000000c0: 7719 26be a452 98bd 8615 2a3e 2b5c 833e
000000d0: 4f92 493e 86b9 153c bb18 57bd 0082 003e
000000e0: 5afb 3ebe 4388 b0bb a8e3 0b3e 00ea 4a3d
000000f0: e9d1 543d e133 ab3c aa5f 7bbd ebad fa3b
00000100: e450 dc3c 8733 8fbd f8f2 713e 235c f2bd
00000110: 004e 133e 9d00 afbd 488a 223e 01e5 3b3e
00000120: 2c11 063e ae78 193e 173a 343d 4c3e 843d
00000130: 6fdf b7bc 5296 35bc 5e03 47bd 8aeb e4bc
00000140: 7676 7fbd 8c71 743e 5d15 9abd 683a 333e

fc3.weight f4 [10, 84]
0.27313575 -0.008072598 0.10864476 0.13927338 -0.13736658 0.0016047005 -0.07529083 -0.21522027
0.1799524 0.08059553 -0.021999853 0.12613766 0.10804403 -0.032913372 0.021994045 0.07891228
0.20329869 0.13775949 0.15119499 0.20229124 -0.016844884 0.122544736 0.0016058426 -0.15604956
-0.21921088 0.030369638 -0.12257763 0.18476069 -0.0018539958 -0.020306295 -0.110837184 -0.068765804
0.0067028925 0.10155582 0.096320264 0.053706236 -0.31943372 0.07872239 0.012992683 -0.12774707
0.07829663 0.21778265 -0.13834283 -0.13890505 -0.08789421 -0.10466021 -0.19787678 0.035716753
0.11137207 0.0963336 0.14938794 0.16875073 0.11319016 0.03840669 0.13805555 -0.10938406
0.10677644 0.060491763 0.018823868 0.080034934 -0.07584141 0.0057032327 0.08527643 0.2223551
-0.20172691 0.06594226 -0.3507741 0.21120928 0.03685838 0.087609075 0.2496044 0.06680949
0.054080885 0.12409985 -0.14663878 0.040167723 0.14576374 -0.09288871 -0.08371398 0.13135417
0.15128496 -0.1212007 0.05285848 0.15058316 -0.24339049 -0.09382195 0.013134408 0.267256
-0.34092245 -0.07242022 -0.10074903 -0.116140984 0.19056922 0.06576623 -0.012892901 0.037931357
-0.121019475 -0.2913394 -0.23215933 0.07211769 -0.040442362 -0.010654668 0.0024333461 0.06107267
-0.111099556 0.08338299 0.017845806 -0.26943558 0.040934533 0.14324175 -0.11619359 -0.11973746
0.19451272 -0.20890933 -0.060179777 0.05736975 -0.039717227 -0.059437063 -0.084475495 -0.07058198
0.0085391225 0.044737104 -0.109124795 -0.07881905 -0.122202404 -0.033394497 0.1089086 -0.05051885
0.16292864 0.082775734 -0.14643143 0.07087305 -0.03657232 0.0052173883 0.3564066 0.06509677
-0.17633416 0.008934162 0.14915262 -0.06835536 0.4117005 0.10273465 -0.07392793 0.18204428
-0.106368676 -0.040359247 0.055196267 -0.11249304 0.24118268 0.04280289 0.008623975 0.02348475
0.30435517 -0.077268854 -0.028878938 -0.13408098 -0.07402819 -0.073288955 -0.11310358 -0.014263305
-0.2053994 -0.030856514 -0.015440907 -0.046124026 0.017856346 -0.1653717 0.032735452 0.0761063
0.030224014 0.12608857 -0.21487512 -0.15155306 0.19966932 -0.04027684 0.08458313 0.2646324
0.06627805 0.023833144 0.12060303 0.042504456 0.137616 -0.13915224 0.35017467 -0.14121357
0.123066336 -0.02192185 0.06444147 -0.048177138 0.1323272 -0.13633612 0.008358482 0.053015575
0.04301263 0.1810793 0.021960137 -0.041415583 -0.09228831 -0.047700476 -0.06360642 0.006102415
0.07364199 0.035952274 0.03936187 0.22437987 -0.015544191 -0.07290926 -0.011822068 0.042233586
0.058632717 0.21290141 0.07841657 -0.05622342 0.014734344 -0.15239632 0.10030777 0.0034244077
0.003870263 0.04452044 -0.21075863 -0.04743555 0.19771542 0.0106798895 0.20974739 -0.00032309964
-0.12610106 0.101622544 0.14167498 -0.10429146 -0.1299011 0.020345433 -0.061537832 0.12563227
-0.07379717 0.009584358 -0.059591155 -0.00400679 -0.016705524 -0.08904082 0.030919177 0.13122767
-0.064954564 -0.020081664 -0.067328356 -0.08746844 0.19466856 -0.0930952 -0.03300829 -0.0964232
-0.0073496024 0.060263306 -0.06585819 0.020662008 0.008362456 0.049667645 0.09619786 -0.24247646
00000000: 73d8 8b3e ee42 04bc 2581 de3d ae9d 0e3e
00000010: d3a9 0cbe d054 d23a 1432 9abd b462 5cbe
00000020: 7145 383e 450f a53d 0939 b4bc 3b2a 013e
00000030: 3046 dd3d 2cd0 06bd db2c b43c c39c a13d
00000040: 882d 503e d310 0d3e dcd2 1a3e 6f25 4f3e
00000050: 48fe 89bc bcf8 fa3d 237b d23a 75cb 1fbe
00000060: d178 60be bfc9 f83c fb09 fbbd e831 3d3e
00000070: c701 f3ba 6359 a6bc 9bfe e2bd 16d5 8cbd
00000080: f0a3 db3b 7ffc cf3d 8f43 c53d 12fb 5b3d
00000090: d18c a3be 3439 a13d 43df 543c 21d0 02be
000000a0: fc59 a03d 6a02 5f3e bea9 0dbe 203d 0ebe
000000b0: e101 b4bd 1858 d6bd 36a0 4abe bb4b 123d
000000c0: 0a17 e43d 8d4a c53d 27f9 183e fecc 2c3e
000000d0: 3ed0 e73d 5550 1d3d 6f5e 0d3e c004 e0bd
000000e0: 9bad da3d 36c6 773d 8334 9a3c 5be9 a33d
000000f0: be52 9bbd 2fe2 ba3b 69a5 ae3d 0eb1 633e
00000100: 8091 4ebe bc0c 873d aa98 b3be 3f47 583e
00000110: d0f8 163d 636c b33d 4c98 7f3e 6ad3 883d
00000120: eb83 5d3d 1028 fe3d 7a28 16be e986 243d
00000130: 1743 153e 703c bebd 3c72 abbd b581 063e
00000140: 72ea 1a3e 1338 f8bd 2282 583d 7932 1a3e
00000150: 5b3b 79be b925 c0bd b331 573c c7d5 883e
00000160: 638d aebe 0d51 94bd 8255 cebd 53db edbd
00000170: 9424 433e 72b0 863d bf3c 53bc e95d 1b3d
00000180: 0fd9 f7bd 702a 95be 2dbb 6dbe 71b2 933d
00000190: e4a6 25bd eb90 2ebc c678 1f3b 5627 7a3d
000001a0: 2a88 e3bd b3c4 aa3d 5e31 923c 76f3 89be
000001b0: f8aa 273d f7ad 123e e8f6 edbd ea38 f5bd
000001c0: 582e 473e 54ec 55be 127f 76bd 8bfc 6a3d
000001d0: 88ae 22bd 4774 73bd 7d01 adbd 498d 90bd
000001e0: ade7 0b3c 413e 373d d27c dfbd e26b a1bd
000001f0: 4145 fabd abc8 08bd 790b df3d dbec 4ebd
00000200: c4d6 263e 5386 a93d 1ff2 15be e425 913d
00000210: dbcc 15bd a0f6 aa3b ed7a b63e 7551 853d
00000220: f190 34be 9760 123c 77bb 183e e5fd 8bbd
00000230: 68ca d23e 8b66 d23d 8767 97bd d169 3a3e
00000240: d2d7 d9bd bd4f 25bd 7b15 623d c062 e6bd
00000250: 98f8 763e 1552 2f3d 934b 0d3c 1763 c03c
00000260: 71d4 9b3e 223f 9ebd 8693 ecbc 864c 09be
00000270: 179c 97bd 8518 96bd daa2 e7bd a3b0 69bc
00000280: 3854 52be cdc6 fcbc dcfb 7cbc 8cec 3cbd
00000290: 7947 923c 3357 29be 9c15 063d 9fdd 9b3d
000002a0: 5a98 f73c 5d1d 013e 3908 5cbe ba30 1bbe
000002b0: 1d76 4c3e 54f9 24bd ec39 ad3d e67d 873e
000002c0: c9bc 873d ba3d c33c b9fe f63d 2719 2e3d
000002d0: 35eb 0c3e ed7d 0ebe 184a b33e 4a9a 10be
000002e0: 340a fc3d 7495 b3bc e4f9 833d 6455 45bd
000002f0: c880 073e b29b 0bbe 04f2 083c dc26 593d
00000300: 032e 303d da6c 393e bfe5 b33c 63a3 29bd
00000310: a701 bdbd 9361 43bd 1544 82bd c4f6 c73b
00000320: 9dd1 963d b142 133d ea39 213d d6c3 653e
00000330: 10ad 7ebc 7351 95bd 59b1 41bc 20fd 2c3d
00000340: dc28 703d d402 5a3e de98 a03d 874a 66bd
00000350: 5168 713c c80d 1cbe 296e cd3d 076c 603b
00000360: 3da4 7d3b 115b 363d 1cd1 57be c74b 42bd
00000370: e975 4a3e b4fa 2e3c 05c8 563e b365 a9b9
00000380: a320 01be 7b1f d03d 3f13 113e c396 d5bd
00000390: cb04 05be 77ab a63c 180f 7cbd bfa5 003e
000003a0: f822 97bd b607 1d3c db15 74bd 644b 83bb
000003b0: 06da 88bc 095b b6bd 374a fd3c 8c60 063e
000003c0: e606 85bd 4d82 a4bc 73e3 89bd a722 b3bd
000003d0: 3257 473e b2a8 bebd b333 07bd 8779 c5bd
000003e0: efd4 f0bb a8d6 763d a9e0 86bd 5f43 a93c
000003f0: af02 093c 4d70 4b3d 6203 c53d c04b 78be

fc3.bias f4 [10]
-0.21294263 -0.39926058 0.089111224 0.35988036 0.46958673 -0.11953942 0.15940298 -0.34104234
0.47650385 -0.30601263
00000000: a20d 5abe e26b ccbe f27f b63d 3d42 b83e
00000010: ac6d f03e 15d1 f4bd 893a 233e 1a9d aebe
00000020: 50f8 f33e b0ad 9cbe
